lightning_logs/version_0/epoch=99-step=400.ckpt (torch, 7730 bytes, 9 tensors)

input_layer.weight f4 [4, 2]
000000 72 e9 42 be 35 45 f9 be 4f 91 ab 3f 28 53 a9 3f
       -0.19034365 -0.48685613 1.340372 1.3228502
000010 8c 67 df 3e 55 1a c3 3e 75 ac 0f be 7d 16 2b bf
       0.43633687 0.38106027 -0.14030631 -0.6683119

input_layer.bias f4 [4]
000000 6c b2 b4 3e 94 26 55 3f 1c f0 9d 3e da fd e2 be
       0.35292375 0.8326199 0.3084725 -0.44334298

output_layer.weight f4 [1, 4]
000000 70 73 eb 3e 1d 4f a3 3e 19 c9 b2 3d 89 31 60 be
       0.4598651 0.31896296 0.087297626 -0.21893896

exp_avg f4 [4, 2]
000000 20 b3 b8 3b 5e 5a 00 3c b2 99 94 bb a4 bc 84 bb
       0.0056365877 0.007834045 -0.0045349235 -0.004050808
000010 68 f4 54 39 5a c2 01 3a 38 2d 93 3a 16 e0 0a bb
       0.00020308944 0.000494992 0.0011228686 -0.0021190695

exp_avg_sq f4 [4, 2]
000000 d5 40 11 3b b8 2c 14 3b 6b dc eb 38 24 7f fd 38
       0.0022163887 0.0022609662 0.00011246729 0.00012087662
000010 db 4f 9c 38 16 9a a7 38 28 5d 10 3a 08 98 e1 39
       7.453534e-05 7.991881e-05 0.00055070454 0.00043028616

exp_avg f4 [4]
000000 b0 92 90 3a 1e 4d db 3a c0 a9 7e b8 30 c6 be 39
       0.0011030044 0.0016731357 -6.071641e-05 0.00036387285

exp_avg_sq f4 [4]
000000 dc d0 8b 3b 16 02 f1 39 f8 72 2d 39 2f 9c 88 3a
       0.0042668413 0.00045968656 0.00016541395 0.0010422523

exp_avg f4 [1, 4]
000000 00 2a 68 39 00 57 ca 3a c0 0c a3 3c 38 ea 30 bb
       0.0002214089 0.0015437305 0.01990354 -0.0026995074

exp_avg_sq f4 [1, 4]
000000 dd 90 b6 3d 27 a6 82 3e 18 5c 23 3e be 54 1f 3d
       0.08914349 0.2551739 0.159531 0.038899176
